…
-  {
-   "cell_type": "code",
-   "execution_count": 6,
-   "id": "2f849d60-63a9-4cd1-9744-ac2d91aba7f3",
-   "metadata": {},
-   "outputs": [],
-   "source": [
-    "# torch.randperm(159826, device='cuda')"
-   ]
-  },
-  {
-   "cell_type": "code",
-   "execution_count": null,
-   "id": "b9c106f9-d952-44b5-b695-57be8c3e3848",
-   "metadata": {},
-   "outputs": [
-    {
-     "name": "stdout",
-     "output_type": "stream",
-     "text": [
-      "\u001b[32m[06/05 20:01:15 d2.engine.defaults]: \u001b[0mModel:\n",
-      "GeneralizedRCNN(\n",
-      "  (backbone): FPN(\n",
-      "    (fpn_lateral2): Conv2d(256, 256, kernel_size=(1, 1), stride=(1, 1))\n",
-      "    (fpn_output2): Conv2d(256, 256, kernel_size=(3, 3), stride=(1, 1), padding=(1, 1))\n",
-      "    (fpn_lateral3): Conv2d(512, 256, kernel_size=(1, 1), stride=(1, 1))\n",
-      "    (fpn_output3): Conv2d(256, 256, kernel_size=(3, 3), stride=(1, 1), padding=(1, 1))\n",
-      "    (fpn_lateral4): Conv2d(1024, 256, kernel_size=(1, 1), stride=(1, 1))\n",
-      "    (fpn_output4): Conv2d(256, 256, kernel_size=(3, 3), stride=(1, 1), padding=(1, 1))\n",
-      "    (fpn_lateral5): Conv2d(2048, 256, kernel_size=(1, 1), stride=(1, 1))\n",
-      "    (fpn_output5): Conv2d(256, 256, kernel_size=(3, 3), stride=(1, 1), padding=(1, 1))\n",
-      "    (top_block): LastLevelMaxPool()\n",
-      "    (bottom_up): ResNet(\n",
-      "      (stem): BasicStem(\n",
-      "        (conv1): Conv2d(\n",
-      "          3, 64, kernel_size=(7, 7), stride=(2, 2), padding=(3, 3), bias=False\n",
-      "          (norm): FrozenBatchNorm2d(num_features=64, eps=1e-05)\n",
-      "        )\n",
-      "      )\n",
-      "      (res2): Sequential(\n",
-      "        (0): BottleneckBlock(\n",
-      "          (shortcut): Conv2d(\n",
-      "            64, 256, kernel_size=(1, 1), stride=(1, 1), bias=False\n",
-      "            (norm): FrozenBatchNorm2d(num_features=256, eps=1e-05)\n",
-      "          )\n",
-      "          (conv1): Conv2d(\n",
-      "            64, 64, kernel_size=(1, 1), stride=(1, 1), bias=False\n",
-      "            (norm): FrozenBatchNorm2d(num_features=64, eps=1e-05)\n",
-      "          )\n",
-      "          (conv2): Conv2d(\n",
-      "            64, 64, kernel_size=(3, 3), stride=(1, 1), padding=(1, 1), bias=False\n",
-      "            (norm): FrozenBatchNorm2d(num_features=64, eps=1e-05)\n",
-      "          )\n",
-      "          (conv3): Conv2d(\n",
-      "            64, 256, kernel_size=(1, 1), stride=(1, 1), bias=False\n",
-      "            (norm): FrozenBatchNorm2d(num_features=256, eps=1e-05)\n",
-      "          )\n",
-      "        )\n",
-      "        (1): BottleneckBlock(\n",
-      "          (conv1): Conv2d(\n",
-      "            256, 64, kernel_size=(1, 1), stride=(1, 1), bias=False\n",
-      "            (norm): FrozenBatchNorm2d(num_features=64, eps=1e-05)\n",
-      "          )\n",
-      "          (conv2): Conv2d(\n",
-      "            64, 64, kernel_size=(3, 3), stride=(1, 1), padding=(1, 1), bias=False\n",
-      "            (norm): FrozenBatchNorm2d(num_features=64, eps=1e-05)\n",
-      "          )\n",
-      "          (conv3): Conv2d(\n",
-      "            64, 256, kernel_size=(1, 1), stride=(1, 1), bias=False\n",
-      "            (norm): FrozenBatchNorm2d(num_features=256, eps=1e-05)\n",
-      "          )\n",
-      "        )\n",
-      "        (2): BottleneckBlock(\n",
-      "          (conv1): Conv2d(\n",
-      "            256, 64, kernel_size=(1, 1), stride=(1, 1), bias=False\n",
-      "            (norm): FrozenBatchNorm2d(num_features=64, eps=1e-05)\n",
-      "          )\n",
-      "          (conv2): Conv2d(\n",
-      "            64, 64, kernel_size=(3, 3), stride=(1, 1), padding=(1, 1), bias=False\n",
-      "            (norm): FrozenBatchNorm2d(num_features=64, eps=1e-05)\n",
-      "          )\n",
-      "          (conv3): Conv2d(\n",
-      "            64, 256, kernel_size=(1, 1), stride=(1, 1), bias=False\n",
-      "            (norm): FrozenBatchNorm2d(num_features=256, eps=1e-05)\n",
-      "          )\n",
-      "        )\n",
-      "      )\n",
-      "      (res3): Sequential(\n",
-      "        (0): BottleneckBlock(\n",
-      "          (shortcut): Conv2d(\n",
-      "            256, 512, kernel_size=(1, 1), stride=(2, 2), bias=False\n",
-      "            (norm): FrozenBatchNorm2d(num_features=512, eps=1e-05)\n",
-      "          )\n",
-      "          (conv1): Conv2d(\n",
-      "            256, 128, kernel_size=(1, 1), stride=(2, 2), bias=False\n",
-      "            (norm): FrozenBatchNorm2d(num_features=128, eps=1e-05)\n",
-      "          )\n",
-      "          (conv2): Conv2d(\n",
-      "            128, 128, kernel_size=(3, 3), stride=(1, 1), padding=(1, 1), bias=False\n",
-      "            (norm): FrozenBatchNorm2d(num_features=128, eps=1e-05)\n",
-      "          )\n",
-      "          (conv3): Conv2d(\n",
-      "            128, 512, kernel_size=(1, 1), stride=(1, 1), bias=False\n",
-      "            (norm): FrozenBatchNorm2d(num_features=512, eps=1e-05)\n",
-      "          )\n",
-      "        )\n",
-      "        (1): BottleneckBlock(\n",
-      "          (conv1): Conv2d(\n",
-      "            512, 128, kernel_size=(1, 1), stride=(1, 1), bias=False\n",
-      "            (norm): FrozenBatchNorm2d(num_features=128, eps=1e-05)\n",
-      "          )\n",
-      "          (conv2): Conv2d(\n",
-      "            128, 128, kernel_size=(3, 3), stride=(1, 1), padding=(1, 1), bias=False\n",
-      "            (norm): FrozenBatchNorm2d(num_features=128, eps=1e-05)\n",
-      "          )\n",
-      "          (conv3): Conv2d(\n",
-      "            128, 512, kernel_size=(1, 1), stride=(1, 1), bias=False\n",
-      "            (norm): FrozenBatchNorm2d(num_features=512, eps=1e-05)\n",
-      "          )\n",
-      "        )\n",
-      "        (2): BottleneckBlock(\n",
-      "          (conv1): Conv2d(\n",
-      "            512, 128, kernel_size=(1, 1), stride=(1, 1), bias=False\n",
-      "            (norm): FrozenBatchNorm2d(num_features=128, eps=1e-05)\n",
-      "          )\n",
-      "          (conv2): Conv2d(\n",
-      "            128, 128, kernel_size=(3, 3), stride=(1, 1), padding=(1, 1), bias=False\n",
-      "            (norm): FrozenBatchNorm2d(num_features=128, eps=1e-05)\n",
-      "          )\n",
-      "          (conv3): Conv2d(\n",
-      "            128, 512, kernel_size=(1, 1), stride=(1, 1), bias=False\n",
-      "            (norm): FrozenBatchNorm2d(num_features=512, eps=1e-05)\n",
-      "          )\n",
-      "        )\n",
-      "        (3): BottleneckBlock(\n",
-      "          (conv1): Conv2d(\n",
-      "            512, 128, kernel_size=(1, 1), stride=(1, 1), bias=False\n",
-      "            (norm): FrozenBatchNorm2d(num_features=128, eps=1e-05)\n",
-      "          )\n",
-      "          (conv2): Conv2d(\n",
-      "            128, 128, kernel_size=(3, 3), stride=(1, 1), padding=(1, 1), bias=False\n",
-      "            (norm): FrozenBatchNorm2d(num_features=128, eps=1e-05)\n",
-      "          )\n",
-      "          (conv3): Conv2d(\n",
-      "            128, 512, kernel_size=(1, 1), stride=(1, 1), bias=False\n",
-      "            (norm): FrozenBatchNorm2d(num_features=512, eps=1e-05)\n",
-      "          )\n",
-      "        )\n",
-      "      )\n",
-      "      (res4): Sequential(\n",
-      "        (0): BottleneckBlock(\n",
-      "          (shortcut): Conv2d(\n",
-      "            512, 1024, kernel_size=(1, 1), stride=(2, 2), bias=False\n",
-      "            (norm): FrozenBatchNorm2d(num_features=1024, eps=1e-05)\n",
-      "          )\n",
-      "          (conv1): Conv2d(\n",
-      "            512, 256, kernel_size=(1, 1), stride=(2, 2), bias=False\n",
-      "            (norm): FrozenBatchNorm2d(num_features=256, eps=1e-05)\n",
-      "          )\n",
-      "          (conv2): Conv2d(\n",
-      "            256, 256, kernel_size=(3, 3), stride=(1, 1), padding=(1, 1), bias=False\n",
-      "            (norm): FrozenBatchNorm2d(num_features=256, eps=1e-05)\n",
-      "          )\n",
-      "          (conv3): Conv2d(\n",
-      "            256, 1024, kernel_size=(1, 1), stride=(1, 1), bias=False\n",
-      "            (norm): FrozenBatchNorm2d(num_features=1024, eps=1e-05)\n",
-      "          )\n",
-      "        )\n",
-      "        (1): BottleneckBlock(\n",
-      "          (conv1): Conv2d(\n",
-      "            1024, 256, kernel_size=(1, 1), stride=(1, 1), bias=False\n",
-      "            (norm): FrozenBatchNorm2d(num_features=256, eps=1e-05)\n",
-      "          )\n",
-      "          (conv2): Conv2d(\n",
-      "            256, 256, kernel_size=(3, 3), stride=(1, 1), padding=(1, 1), bias=False\n",
-      "            (norm): FrozenBatchNorm2d(num_features=256, eps=1e-05)\n",
-      "          )\n",
-      "          (conv3): Conv2d(\n",
-      "            256, 1024, kernel_size=(1, 1), stride=(1, 1), bias=False\n",
-      "            (norm): FrozenBatchNorm2d(num_features=1024, eps=1e-05)\n",
-      "          )\n",
-      "        )\n",
-      "        (2): BottleneckBlock(\n",
-      "          (conv1): Conv2d(\n",
-      "            1024, 256, kernel_size=(1, 1), stride=(1, 1), bias=False\n",
-      "            (norm): FrozenBatchNorm2d(num_features=256, eps=1e-05)\n",
-      "          )\n",
-      "          (conv2): Conv2d(\n",
-      "            256, 256, kernel_size=(3, 3), stride=(1, 1), padding=(1, 1), bias=False\n",
-      "            (norm): FrozenBatchNorm2d(num_features=256, eps=1e-05)\n",
-      "          )\n",
-      "          (conv3): Conv2d(\n",
-      "            256, 1024, kernel_size=(1, 1), stride=(1, 1), bias=False\n",
-      "            (norm): FrozenBatchNorm2d(num_features=1024, eps=1e-05)\n",
-      "          )\n",
-      "        )\n",
-      "        (3): BottleneckBlock(\n",
-      "          (conv1): Conv2d(\n",
-      "            1024, 256, kernel_size=(1, 1), stride=(1, 1), bias=False\n",
-      "            (norm): FrozenBatchNorm2d(num_features=256, eps=1e-05)\n",
-      "          )\n",
-      "          (conv2): Conv2d(\n",
-      "            256, 256, kernel_size=(3, 3), stride=(1, 1), padding=(1, 1), bias=False\n",
-      "            (norm): FrozenBatchNorm2d(num_features=256, eps=1e-05)\n",
-      "          )\n",
-      "          (conv3): Conv2d(\n",
-      "            256, 1024, kernel_size=(1, 1), stride=(1, 1), bias=False\n",
-      "            (norm): FrozenBatchNorm2d(num_features=1024, eps=1e-05)\n",
-      "          )\n",
-      "        )\n",
-      "        (4): BottleneckBlock(\n",
-      "          (conv1): Conv2d(\n",
-      "            1024, 256, kernel_size=(1, 1), stride=(1, 1), bias=False\n",
-      "            (norm): FrozenBatchNorm2d(num_features=256, eps=1e-05)\n",
-      "          )\n",
-      "          (conv2): Conv2d(\n",
-      "            256, 256, kernel_size=(3, 3), stride=(1, 1), padding=(1, 1), bias=False\n",
-      "            (norm): FrozenBatchNorm2d(num_features=256, eps=1e-05)\n",
-      "          )\n",
-      "          (conv3): Conv2d(\n",
-      "            256, 1024, kernel_size=(1, 1), stride=(1, 1), bias=False\n",
-      "            (norm): FrozenBatchNorm2d(num_features=1024, eps=1e-05)\n",
-      "          )\n",
-      "        )\n",
-      "        (5): BottleneckBlock(\n",
-      "          (conv1): Conv2d(\n",
-      "            1024, 256, kernel_size=(1, 1), stride=(1, 1), bias=False\n",
-      "            (norm): FrozenBatchNorm2d(num_features=256, eps=1e-05)\n",
-      "          )\n",
-      "          (conv2): Conv2d(\n",
-      "            256, 256, kernel_size=(3, 3), stride=(1, 1), padding=(1, 1), bias=False\n",
-      "            (norm): FrozenBatchNorm2d(num_features=256, eps=1e-05)\n",
-      "          )\n",
-      "          (conv3): Conv2d(\n",
-      "            256, 1024, kernel_size=(1, 1), stride=(1, 1), bias=False\n",
-      "            (norm): FrozenBatchNorm2d(num_features=1024, eps=1e-05)\n",
-      "          )\n",
-      "        )\n",
-      "        (6): BottleneckBlock(\n",
-      "          (conv1): Conv2d(\n",
-      "            1024, 256, kernel_size=(1, 1), stride=(1, 1), bias=False\n",
-      "            (norm): FrozenBatchNorm2d(num_features=256, eps=1e-05)\n",
-      "          )\n",
-      "          (conv2): Conv2d(\n",
-      "            256, 256, kernel_size=(3, 3), stride=(1, 1), padding=(1, 1), bias=False\n",
-      "            (norm): FrozenBatchNorm2d(num_features=256, eps=1e-05)\n",
-      "          )\n",
-      "          (conv3): Conv2d(\n",
-      "            256, 1024, kernel_size=(1, 1), stride=(1, 1), bias=False\n",
-      "            (norm): FrozenBatchNorm2d(num_features=1024, eps=1e-05)\n",
-      "          )\n",
-      "        )\n",
-      "        (7): BottleneckBlock(\n",
-      "          (conv1): Conv2d(\n",
-      "            1024, 256, kernel_size=(1, 1), stride=(1, 1), bias=False\n",
-      "            (norm): FrozenBatchNorm2d(num_features=256, eps=1e-05)\n",
-      "          )\n",
-      "          (conv2): Conv2d(\n",
-      "            256, 256, kernel_size=(3, 3), stride=(1, 1), padding=(1, 1), bias=False\n",
-      "            (norm): FrozenBatchNorm2d(num_features=256, eps=1e-05)\n",
-      "          )\n",
-      "          (conv3): Conv2d(\n",
-      "            256, 1024, kernel_size=(1, 1), stride=(1, 1), bias=False\n",
-      "            (norm): FrozenBatchNorm2d(num_features=1024, eps=1e-05)\n",
-      "          )\n",
-      "        )\n",
-      "        (8): BottleneckBlock(\n",
-      "          (conv1): Conv2d(\n",
-      "            1024, 256, kernel_size=(1, 1), stride=(1, 1), bias=False\n",
-      "            (norm): FrozenBatchNorm2d(num_features=256, eps=1e-05)\n",
-      "          )\n",
-      "          (conv2): Conv2d(\n",
-      "            256, 256, kernel_size=(3, 3), stride=(1, 1), padding=(1, 1), bias=False\n",
-      "            (norm): FrozenBatchNorm2d(num_features=256, eps=1e-05)\n",
-      "          )\n",
-      "          (conv3): Conv2d(\n",
-      "            256, 1024, kernel_size=(1, 1), stride=(1, 1), bias=False\n",
-      "            (norm): FrozenBatchNorm2d(num_features=1024, eps=1e-05)\n",
-      "          )\n",
-      "        )\n",
-      "        (9): BottleneckBlock(\n",
-      "          (conv1): Conv2d(\n",
-      "            1024, 256, kernel_size=(1, 1), stride=(1, 1), bias=False\n",
-      "            (norm): FrozenBatchNorm2d(num_features=256, eps=1e-05)\n",
-      "          )\n",
-      "          (conv2): Conv2d(\n",
-      "            256, 256, kernel_size=(3, 3), stride=(1, 1), padding=(1, 1), bias=False\n",
-      "            (norm): FrozenBatchNorm2d(num_features=256, eps=1e-05)\n",
-      "          )\n",
-      "          (conv3): Conv2d(\n",
-      "            256, 1024, kernel_size=(1, 1), stride=(1, 1), bias=False\n",
-      "            (norm): FrozenBatchNorm2d(num_features=1024, eps=1e-05)\n",
-      "          )\n",
-      "        )\n",
-      "        (10): BottleneckBlock(\n",
-      "          (conv1): Conv2d(\n",
-      "            1024, 256, kernel_size=(1, 1), stride=(1, 1), bias=False\n",
-      "            (norm): FrozenBatchNorm2d(num_features=256, eps=1e-05)\n",
-      "          )\n",
-      "          (conv2): Conv2d(\n",
-      "            256, 256, kernel_size=(3, 3), stride=(1, 1), padding=(1, 1), bias=False\n",
-      "            (norm): FrozenBatchNorm2d(num_features=256, eps=1e-05)\n",
-      "          )\n",
-      "          (conv3): Conv2d(\n",
-      "            256, 1024, kernel_size=(1, 1), stride=(1, 1), bias=False\n",
-      "            (norm): FrozenBatchNorm2d(num_features=1024, eps=1e-05)\n",
-      "          )\n",
-      "        )\n",
-      "        (11): BottleneckBlock(\n",
-      "          (conv1): Conv2d(\n",
-      "            1024, 256, kernel_size=(1, 1), stride=(1, 1), bias=False\n",
-      "            (norm): FrozenBatchNorm2d(num_features=256, eps=1e-05)\n",
-      "          )\n",
-      "          (conv2): Conv2d(\n",
-      "            256, 256, kernel_size=(3, 3), stride=(1, 1), padding=(1, 1), bias=False\n",
-      "            (norm): FrozenBatchNorm2d(num_features=256, eps=1e-05)\n",
-      "          )\n",
-      "          (conv3): Conv2d(\n",
-      "            256, 1024, kernel_size=(1, 1), stride=(1, 1), bias=False\n",
-      "            (norm): FrozenBatchNorm2d(num_features=1024, eps=1e-05)\n",
-      "          )\n",
-      "        )\n",
-      "        (12): BottleneckBlock(\n",
-      "          (conv1): Conv2d(\n",
-      "            1024, 256, kernel_size=(1, 1), stride=(1, 1), bias=False\n",
-      "            (norm): FrozenBatchNorm2d(num_features=256, eps=1e-05)\n",
-      "          )\n",
-      "          (conv2): Conv2d(\n",
-      "            256, 256, kernel_size=(3, 3), stride=(1, 1), padding=(1, 1), bias=False\n",
-      "            (norm): FrozenBatchNorm2d(num_features=256, eps=1e-05)\n",
-      "          )\n",
-      "          (conv3): Conv2d(\n",
-      "            256, 1024, kernel_size=(1, 1), stride=(1, 1), bias=False\n",
-      "            (norm): FrozenBatchNorm2d(num_features=1024, eps=1e-05)\n",
-      "          )\n",
-      "        )\n",
-      "        (13): BottleneckBlock(\n",
-      "          (conv1): Conv2d(\n",
-      "            1024, 256, kernel_size=(1, 1), stride=(1, 1), bias=False\n",
-      "            (norm): FrozenBatchNorm2d(num_features=256, eps=1e-05)\n",
-      "          )\n",
-      "          (conv2): Conv2d(\n",
-      "            256, 256, kernel_size=(3, 3), stride=(1, 1), padding=(1, 1), bias=False\n",
-      "            (norm): FrozenBatchNorm2d(num_features=256, eps=1e-05)\n",
-      "          )\n",
-      "          (conv3): Conv2d(\n",
-      "            256, 1024, kernel_size=(1, 1), stride=(1, 1), bias=False\n",
-      "            (norm): FrozenBatchNorm2d(num_features=1024, eps=1e-05)\n",
-      "          )\n",
-      "        )\n",
-      "        (14): BottleneckBlock(\n",
-      "          (conv1): Conv2d(\n",
-      "            1024, 256, kernel_size=(1, 1), stride=(1, 1), bias=False\n",
-      "            (norm): FrozenBatchNorm2d(num_features=256, eps=1e-05)\n",
-      "          )\n",
-      "          (conv2): Conv2d(\n",
-      "            256, 256, kernel_size=(3, 3), stride=(1, 1), padding=(1, 1), bias=False\n",
-      "            (norm): FrozenBatchNorm2d(num_features=256, eps=1e-05)\n",
-      "          )\n",
-      "          (conv3): Conv2d(\n",
-      "            256, 1024, kernel_size=(1, 1), stride=(1, 1), bias=False\n",
-      "            (norm): FrozenBatchNorm2d(num_features=1024, eps=1e-05)\n",
-      "          )\n",
-      "        )\n",
-      "        (15): BottleneckBlock(\n",
-      "          (conv1): Conv2d(\n",
-      "            1024, 256, kernel_size=(1, 1), stride=(1, 1), bias=False\n",
-      "            (norm): FrozenBatchNorm2d(num_features=256, eps=1e-05)\n",
-      "          )\n",
-      "          (conv2): Conv2d(\n",
-      "            256, 256, kernel_size=(3, 3), stride=(1, 1), padding=(1, 1), bias=False\n",
-      "            (norm): FrozenBatchNorm2d(num_features=256, eps=1e-05)\n",
-      "          )\n",
-      "          (conv3): Conv2d(\n",
-      "            256, 1024, kernel_size=(1, 1), stride=(1, 1), bias=False\n",
-      "            (norm): FrozenBatchNorm2d(num_features=1024, eps=1e-05)\n",
-      "          )\n",
-      "        )\n",
-      "        (16): BottleneckBlock(\n",
-      "          (conv1): Conv2d(\n",
-      "            1024, 256, kernel_size=(1, 1), stride=(1, 1), bias=False\n",
-      "            (norm): FrozenBatchNorm2d(num_features=256, eps=1e-05)\n",
-      "          )\n",
-      "          (conv2): Conv2d(\n",
-      "            256, 256, kernel_size=(3, 3), stride=(1, 1), padding=(1, 1), bias=False\n",
-      "            (norm): FrozenBatchNorm2d(num_features=256, eps=1e-05)\n",
-      "          )\n",
-      "          (conv3): Conv2d(\n",
-      "            256, 1024, kernel_size=(1, 1), stride=(1, 1), bias=False\n",
-      "            (norm): FrozenBatchNorm2d(num_features=1024, eps=1e-05)\n",
-      "          )\n",
-      "        )\n",
-      "        (17): BottleneckBlock(\n",
-      "          (conv1): Conv2d(\n",
-      "            1024, 256, kernel_size=(1, 1), stride=(1, 1), bias=False\n",
-      "            (norm): FrozenBatchNorm2d(num_features=256, eps=1e-05)\n",
-      "          )\n",
-      "          (conv2): Conv2d(\n",
-      "            256, 256, kernel_size=(3, 3), stride=(1, 1), padding=(1, 1), bias=False\n",
-      "            (norm): FrozenBatchNorm2d(num_features=256, eps=1e-05)\n",
-      "          )\n",
-      "          (conv3): Conv2d(\n",
-      "            256, 1024, kernel_size=(1, 1), stride=(1, 1), bias=False\n",
-      "            (norm): FrozenBatchNorm2d(num_features=1024, eps=1e-05)\n",
-      "          )\n",
-      "        )\n",
-      "        (18): BottleneckBlock(\n",
-      "          (conv1): Conv2d(\n",
-      "            1024, 256, kernel_size=(1, 1), stride=(1, 1), bias=False\n",
-      "            (norm): FrozenBatchNorm2d(num_features=256, eps=1e-05)\n",
-      "          )\n",
-      "          (conv2): Conv2d(\n",
-      "            256, 256, kernel_size=(3, 3), stride=(1, 1), padding=(1, 1), bias=False\n",
-      "            (norm): FrozenBatchNorm2d(num_features=256, eps=1e-05)\n",
-      "          )\n",
-      "          (conv3): Conv2d(\n",
-      "            256, 1024, kernel_size=(1, 1), stride=(1, 1), bias=False\n",
-      "            (norm): FrozenBatchNorm2d(num_features=1024, eps=1e-05)\n",
-      "          )\n",
-      "        )\n",
-      "        (19): BottleneckBlock(\n",
-      "          (conv1): Conv2d(\n",
-      "            1024, 256, kernel_size=(1, 1), stride=(1, 1), bias=False\n",
-      "            (norm): FrozenBatchNorm2d(num_features=256, eps=1e-05)\n",
-      "          )\n",
-      "          (conv2): Conv2d(\n",
-      "            256, 256, kernel_size=(3, 3), stride=(1, 1), padding=(1, 1), bias=False\n",
-      "            (norm): FrozenBatchNorm2d(num_features=256, eps=1e-05)\n",
-      "          )\n",
-      "          (conv3): Conv2d(\n",
-      "            256, 1024, kernel_size=(1, 1), stride=(1, 1), bias=False\n",
-      "            (norm): FrozenBatchNorm2d(num_features=1024, eps=1e-05)\n",
-      "          )\n",
-      "        )\n",
-      "        (20): BottleneckBlock(\n",
-      "          (conv1): Conv2d(\n",
-      "            1024, 256, kernel_size=(1, 1), stride=(1, 1), bias=False\n",
-      "            (norm): FrozenBatchNorm2d(num_features=256, eps=1e-05)\n",
-      "          )\n",
-      "          (conv2): Conv2d(\n",
-      "            256, 256, kernel_size=(3, 3), stride=(1, 1), padding=(1, 1), bias=False\n",
-      "            (norm): FrozenBatchNorm2d(num_features=256, eps=1e-05)\n",
-      "          )\n",
-      "          (conv3): Conv2d(\n",
-      "            256, 1024, kernel_size=(1, 1), stride=(1, 1), bias=False\n",
-      "            (norm): FrozenBatchNorm2d(num_features=1024, eps=1e-05)\n",
-      "          )\n",
-      "        )\n",
-      "        (21): BottleneckBlock(\n",
-      "          (conv1): Conv2d(\n",
-      "            1024, 256, kernel_size=(1, 1), stride=(1, 1), bias=False\n",
-      "            (norm): FrozenBatchNorm2d(num_features=256, eps=1e-05)\n",
-      "          )\n",
-      "          (conv2): Conv2d(\n",
-      "            256, 256, kernel_size=(3, 3), stride=(1, 1), padding=(1, 1), bias=False\n",
-      "            (norm): FrozenBatchNorm2d(num_features=256, eps=1e-05)\n",
-      "          )\n",
-      "          (conv3): Conv2d(\n",
-      "            256, 1024, kernel_size=(1, 1), stride=(1, 1), bias=False\n",
-      "            (norm): FrozenBatchNorm2d(num_features=1024, eps=1e-05)\n",
-      "          )\n",
-      "        )\n",
-      "        (22): BottleneckBlock(\n",
-      "          (conv1): Conv2d(\n",
-      "            1024, 256, kernel_size=(1, 1), stride=(1, 1), bias=False\n",
-      "            (norm): FrozenBatchNorm2d(num_features=256, eps=1e-05)\n",
-      "          )\n",
-      "          (conv2): Conv2d(\n",
-      "            256, 256, kernel_size=(3, 3), stride=(1, 1), padding=(1, 1), bias=False\n",
-      "            (norm): FrozenBatchNorm2d(num_features=256, eps=1e-05)\n",
-      "          )\n",
-      "          (conv3): Conv2d(\n",
-      "            256, 1024, kernel_size=(1, 1), stride=(1, 1), bias=False\n",
-      "            (norm): FrozenBatchNorm2d(num_features=1024, eps=1e-05)\n",
-      "          )\n",
-      "        )\n",
-      "      )\n",
-      "      (res5): Sequential(\n",
-      "        (0): BottleneckBlock(\n",
-      "          (shortcut): Conv2d(\n",
-      "            1024, 2048, kernel_size=(1, 1), stride=(2, 2), bias=False\n",
-      "            (norm): FrozenBatchNorm2d(num_features=2048, eps=1e-05)\n",
-      "          )\n",
-      "          (conv1): Conv2d(\n",
-      "            1024, 512, kernel_size=(1, 1), stride=(2, 2), bias=False\n",
-      "            (norm): FrozenBatchNorm2d(num_features=512, eps=1e-05)\n",
-      "          )\n",
-      "          (conv2): Conv2d(\n",
-      "            512, 512, kernel_size=(3, 3), stride=(1, 1), padding=(1, 1), bias=False\n",
-      "            (norm): FrozenBatchNorm2d(num_features=512, eps=1e-05)\n",
-      "          )\n",
-      "          (conv3): Conv2d(\n",
-      "            512, 2048, kernel_size=(1, 1), stride=(1, 1), bias=False\n",
-      "            (norm): FrozenBatchNorm2d(num_features=2048, eps=1e-05)\n",
-      "          )\n",
-      "        )\n",
-      "        (1): BottleneckBlock(\n",
-      "          (conv1): Conv2d(\n",
-      "            2048, 512, kernel_size=(1, 1), stride=(1, 1), bias=False\n",
-      "            (norm): FrozenBatchNorm2d(num_features=512, eps=1e-05)\n",
-      "          )\n",
-      "          (conv2): Conv2d(\n",
-      "            512, 512, kernel_size=(3, 3), stride=(1, 1), padding=(1, 1), bias=False\n",
-      "            (norm): FrozenBatchNorm2d(num_features=512, eps=1e-05)\n",
-      "          )\n",
-      "          (conv3): Conv2d(\n",
-      "            512, 2048, kernel_size=(1, 1), stride=(1, 1), bias=False\n",
-      "            (norm): FrozenBatchNorm2d(num_features=2048, eps=1e-05)\n",
-      "          )\n",
-      "        )\n",
-      "        (2): BottleneckBlock(\n",
-      "          (conv1): Conv2d(\n",
-      "            2048, 512, kernel_size=(1, 1), stride=(1, 1), bias=False\n",
-      "            (norm): FrozenBatchNorm2d(num_features=512, eps=1e-05)\n",
-      "          )\n",
-      "          (conv2): Conv2d(\n",
-      "            512, 512, kernel_size=(3, 3), stride=(1, 1), padding=(1, 1), bias=False\n",
-      "            (norm): FrozenBatchNorm2d(num_features=512, eps=1e-05)\n",
-      "          )\n",
-      "          (conv3): Conv2d(\n",
-      "            512, 2048, kernel_size=(1, 1), stride=(1, 1), bias=False\n",
-      "            (norm): FrozenBatchNorm2d(num_features=2048, eps=1e-05)\n",
-      "          )\n",
-      "        )\n",
-      "      )\n",
-      "    )\n",
-      "  )\n",
-      "  (proposal_generator): RPN(\n",
-      "    (rpn_head): StandardRPNHead(\n",
-      "      (conv): Conv2d(256, 256, kernel_size=(3, 3), stride=(1, 1), padding=(1, 1))\n",
-      "      (objectness_logits): Conv2d(256, 3, kernel_size=(1, 1), stride=(1, 1))\n",
-      "      (anchor_deltas): Conv2d(256, 12, kernel_size=(1, 1), stride=(1, 1))\n",
-      "    )\n",
-      "    (anchor_generator): DefaultAnchorGenerator(\n",
-      "      (cell_anchors): BufferList()\n",
-      "    )\n",
-      "  )\n",
-      "  (roi_heads): StandardROIHeads(\n",
-      "    (box_pooler): ROIPooler(\n",
-      "      (level_poolers): ModuleList(\n",
-      "        (0): ROIAlign(output_size=(7, 7), spatial_scale=0.25, sampling_ratio=0, aligned=True)\n",
…
